…
      "    (PwR): Conv2d(256, 512, kernel_size=(1, 1), stride=(2, 2), bias=False)\n",
      "  )\n",
      "  (conv2): Conv2d(512, 512, kernel_size=(1, 1), stride=(1, 1), bias=False)\n",
      "  (avgpool): AdaptiveAvgPool2d(output_size=1)\n",
      "  (dropout): Dropout(p=0.4, inplace=False)\n",
      "  (fc): Linear(in_features=512, out_features=200, bias=True)\n",
      ")\n",
      "----------------------------------------------------------------\n",
      "        Layer (type)               Output Shape         Param #\n",
      "================================================================\n",
      "            Conv2d-1           [-1, 32, 32, 32]             864\n",
      "            Conv2d-2           [-1, 32, 32, 32]           1,024\n",
      "            Conv2d-3           [-1, 32, 32, 32]             288\n",
      "            Conv2d-4           [-1, 32, 32, 32]             288\n",
      "            Conv2d-5           [-1, 64, 32, 32]           4,096\n",
      "           Flatten-6                   [-1, 64]               0\n",
      "            Linear-7                    [-1, 4]             260\n",
      "              ReLU-8                    [-1, 4]               0\n",
      "            Linear-9                   [-1, 64]             320\n",
      "      ChannelGate-10           [-1, 64, 32, 32]               0\n",
      "               SE-11           [-1, 64, 32, 32]               0\n",
      "           Conv2d-12           [-1, 64, 32, 32]           2,048\n",
      "         PDPBlock-13           [-1, 64, 32, 32]               0\n",
      "           Conv2d-14           [-1, 64, 32, 32]           4,096\n",
      "           Conv2d-15           [-1, 64, 32, 32]             576\n",
      "           Conv2d-16           [-1, 64, 32, 32]             576\n",
      "           Conv2d-17           [-1, 64, 32, 32]           8,192\n",
      "          Flatten-18                   [-1, 64]               0\n",
      "           Linear-19                    [-1, 4]             260\n",
      "             ReLU-20                    [-1, 4]               0\n",
      "           Linear-21                   [-1, 64]             320\n",
      "      ChannelGate-22           [-1, 64, 32, 32]               0\n",
      "               SE-23           [-1, 64, 32, 32]               0\n",
      "         PDPBlock-24           [-1, 64, 32, 32]               0\n",
      "           Conv2d-25           [-1, 64, 32, 32]           4,096\n",
      "           Conv2d-26           [-1, 64, 16, 16]             576\n",
      "           Conv2d-27           [-1, 64, 32, 32]             576\n",
      "           Conv2d-28          [-1, 128, 16, 16]          16,384\n",
      "          Flatten-29                  [-1, 128]               0\n",
      "           Linear-30                    [-1, 8]           1,032\n",
      "             ReLU-31                    [-1, 8]               0\n",
      "           Linear-32                  [-1, 128]           1,152\n",
      "      ChannelGate-33          [-1, 128, 16, 16]               0\n",
      "               SE-34          [-1, 128, 16, 16]               0\n",
      "           Conv2d-35          [-1, 128, 16, 16]           8,192\n",
      "         PDPBlock-36          [-1, 128, 16, 16]               0\n",
      "           Conv2d-37          [-1, 128, 16, 16]          16,384\n",
      "           Conv2d-38          [-1, 128, 16, 16]           1,152\n",
      "           Conv2d-39          [-1, 128, 16, 16]           1,152\n",
      "           Conv2d-40          [-1, 128, 16, 16]          32,768\n",
      "          Flatten-41                  [-1, 128]               0\n",
      "           Linear-42                    [-1, 8]           1,032\n",
      "             ReLU-43                    [-1, 8]               0\n",
      "           Linear-44                  [-1, 128]           1,152\n",
      "      ChannelGate-45          [-1, 128, 16, 16]               0\n",
      "               SE-46          [-1, 128, 16, 16]               0\n",
      "         PDPBlock-47          [-1, 128, 16, 16]               0\n",
      "           Conv2d-48          [-1, 128, 16, 16]          16,384\n",
      "           Conv2d-49            [-1, 128, 8, 8]           1,152\n",
      "           Conv2d-50          [-1, 128, 16, 16]           1,152\n",
      "           Conv2d-51            [-1, 256, 8, 8]          65,536\n",
      "          Flatten-52                  [-1, 256]               0\n",
      "           Linear-53                   [-1, 16]           4,112\n",
      "             ReLU-54                   [-1, 16]               0\n",
      "           Linear-55                  [-1, 256]           4,352\n",
      "      ChannelGate-56            [-1, 256, 8, 8]               0\n",
      "               SE-57            [-1, 256, 8, 8]               0\n",
      "           Conv2d-58            [-1, 256, 8, 8]          32,768\n",
      "         PDPBlock-59            [-1, 256, 8, 8]               0\n",
      "           Conv2d-60            [-1, 256, 8, 8]          65,536\n",
      "           Conv2d-61            [-1, 256, 8, 8]           2,304\n",
      "           Conv2d-62            [-1, 256, 8, 8]           2,304\n",
      "           Conv2d-63            [-1, 256, 8, 8]         131,072\n",
      "          Flatten-64                  [-1, 256]               0\n",
      "           Linear-65                   [-1, 16]           4,112\n",
      "             ReLU-66                   [-1, 16]               0\n",
      "           Linear-67                  [-1, 256]           4,352\n",
      "      ChannelGate-68            [-1, 256, 8, 8]               0\n",
      "               SE-69            [-1, 256, 8, 8]               0\n",
      "         PDPBlock-70            [-1, 256, 8, 8]               0\n",
      "           Conv2d-71            [-1, 256, 8, 8]          65,536\n",
      "           Conv2d-72            [-1, 256, 4, 4]           2,304\n",
      "           Conv2d-73            [-1, 256, 8, 8]           2,304\n",
      "           Conv2d-74            [-1, 512, 4, 4]         262,144\n",
      "          Flatten-75                  [-1, 512]               0\n",
      "           Linear-76                   [-1, 32]          16,416\n",
      "             ReLU-77                   [-1, 32]               0\n",
      "           Linear-78                  [-1, 512]          16,896\n",
      "      ChannelGate-79            [-1, 512, 4, 4]               0\n",
      "               SE-80            [-1, 512, 4, 4]               0\n",
      "           Conv2d-81            [-1, 512, 4, 4]         131,072\n",
      "         PDPBlock-82            [-1, 512, 4, 4]               0\n",
      "           Conv2d-83            [-1, 512, 4, 4]         262,144\n",
      "AdaptiveAvgPool2d-84            [-1, 512, 1, 1]               0\n",
      "          Dropout-85                  [-1, 512]               0\n",
      "           Linear-86                  [-1, 200]         102,600\n",
      "================================================================\n",
      "Total params: 1,305,408\n",
      "Trainable params: 1,305,408\n",
      "Non-trainable params: 0\n",
      "----------------------------------------------------------------\n",
      "Input size (MB): 0.01\n",
      "Forward/backward pass size (MB): 13.88\n",
      "Params size (MB): 4.98\n",
      "Estimated Total Size (MB): 18.87\n",
…
