…
      "  (conv2): Conv2d(512, 1024, kernel_size=(1, 1), stride=(1, 1))\n",
      "  (bn2): BatchNorm2d(1024, eps=1e-05, momentum=0.1, affine=True, track_running_stats=True)\n",
      "  (avgpool): AdaptiveAvgPool2d(output_size=1)\n",
      "  (dropout): Dropout(p=0.2, inplace=False)\n",
      "  (fc): Linear(in_features=1024, out_features=100, bias=True)\n",
      ")\n",
      "----------------------------------------------------------------\n",
      "        Layer (type)               Output Shape         Param #\n",
      "================================================================\n",
      "            Conv2d-1           [-1, 32, 32, 32]             896\n",
      "       BatchNorm2d-2           [-1, 32, 32, 32]              64\n",
      "            Conv2d-3           [-1, 32, 32, 32]           1,024\n",
      "            Conv2d-4           [-1, 32, 32, 32]             288\n",
      "            Conv2d-5           [-1, 32, 32, 32]             288\n",
      "            Conv2d-6           [-1, 64, 32, 32]           4,096\n",
      "           Flatten-7                   [-1, 64]               0\n",
      "            Linear-8                    [-1, 4]             260\n",
      "              ReLU-9                    [-1, 4]               0\n",
      "           Linear-10                   [-1, 64]             320\n",
      "      ChannelGate-11           [-1, 64, 32, 32]               0\n",
      "               SE-12           [-1, 64, 32, 32]               0\n",
      "           Conv2d-13           [-1, 64, 32, 32]           2,048\n",
      "         PDPBlock-14           [-1, 64, 32, 32]               0\n",
      "           Conv2d-15           [-1, 64, 32, 32]           4,096\n",
      "           Conv2d-16           [-1, 64, 32, 32]             576\n",
      "           Conv2d-17           [-1, 64, 32, 32]             576\n",
      "           Conv2d-18           [-1, 64, 32, 32]           8,192\n",
      "          Flatten-19                   [-1, 64]               0\n",
      "           Linear-20                    [-1, 4]             260\n",
      "             ReLU-21                    [-1, 4]               0\n",
      "           Linear-22                   [-1, 64]             320\n",
      "      ChannelGate-23           [-1, 64, 32, 32]               0\n",
      "               SE-24           [-1, 64, 32, 32]               0\n",
      "         PDPBlock-25           [-1, 64, 32, 32]               0\n",
      "           Conv2d-26           [-1, 64, 32, 32]           4,096\n",
      "           Conv2d-27           [-1, 64, 16, 16]             576\n",
      "           Conv2d-28           [-1, 64, 32, 32]             576\n",
      "           Conv2d-29          [-1, 128, 16, 16]          16,384\n",
      "          Flatten-30                  [-1, 128]               0\n",
      "           Linear-31                    [-1, 8]           1,032\n",
      "             ReLU-32                    [-1, 8]               0\n",
      "           Linear-33                  [-1, 128]           1,152\n",
      "      ChannelGate-34          [-1, 128, 16, 16]               0\n",
      "               SE-35          [-1, 128, 16, 16]               0\n",
      "           Conv2d-36          [-1, 128, 16, 16]           8,192\n",
      "         PDPBlock-37          [-1, 128, 16, 16]               0\n",
      "           Conv2d-38          [-1, 128, 16, 16]          16,384\n",
      "           Conv2d-39          [-1, 128, 16, 16]           1,152\n",
      "           Conv2d-40          [-1, 128, 16, 16]           1,152\n",
      "           Conv2d-41          [-1, 128, 16, 16]          32,768\n",
      "          Flatten-42                  [-1, 128]               0\n",
      "           Linear-43                    [-1, 8]           1,032\n",
      "             ReLU-44                    [-1, 8]               0\n",
      "           Linear-45                  [-1, 128]           1,152\n",
      "      ChannelGate-46          [-1, 128, 16, 16]               0\n",
      "               SE-47          [-1, 128, 16, 16]               0\n",
      "         PDPBlock-48          [-1, 128, 16, 16]               0\n",
      "           Conv2d-49          [-1, 128, 16, 16]          16,384\n",
      "           Conv2d-50            [-1, 128, 8, 8]           1,152\n",
      "           Conv2d-51          [-1, 128, 16, 16]           1,152\n",
      "           Conv2d-52            [-1, 256, 8, 8]          65,536\n",
      "          Flatten-53                  [-1, 256]               0\n",
      "           Linear-54                   [-1, 16]           4,112\n",
      "             ReLU-55                   [-1, 16]               0\n",
      "           Linear-56                  [-1, 256]           4,352\n",
      "      ChannelGate-57            [-1, 256, 8, 8]               0\n",
      "               SE-58            [-1, 256, 8, 8]               0\n",
      "           Conv2d-59            [-1, 256, 8, 8]          32,768\n",
      "         PDPBlock-60            [-1, 256, 8, 8]               0\n",
      "           Conv2d-61            [-1, 256, 8, 8]          65,536\n",
      "           Conv2d-62            [-1, 256, 8, 8]           2,304\n",
      "           Conv2d-63            [-1, 256, 8, 8]           2,304\n",
      "           Conv2d-64            [-1, 256, 8, 8]         131,072\n",
      "          Flatten-65                  [-1, 256]               0\n",
      "           Linear-66                   [-1, 16]           4,112\n",
      "             ReLU-67                   [-1, 16]               0\n",
      "           Linear-68                  [-1, 256]           4,352\n",
      "      ChannelGate-69            [-1, 256, 8, 8]               0\n",
      "               SE-70            [-1, 256, 8, 8]               0\n",
      "         PDPBlock-71            [-1, 256, 8, 8]               0\n",
      "           Conv2d-72            [-1, 256, 8, 8]          65,536\n",
      "           Conv2d-73            [-1, 256, 8, 8]           2,304\n",
      "           Conv2d-74            [-1, 256, 8, 8]           2,304\n",
      "           Conv2d-75            [-1, 256, 8, 8]         131,072\n",
      "          Flatten-76                  [-1, 256]               0\n",
      "           Linear-77                   [-1, 16]           4,112\n",
      "             ReLU-78                   [-1, 16]               0\n",
      "           Linear-79                  [-1, 256]           4,352\n",
      "      ChannelGate-80            [-1, 256, 8, 8]               0\n",
      "               SE-81            [-1, 256, 8, 8]               0\n",
      "         PDPBlock-82            [-1, 256, 8, 8]               0\n",
      "           Conv2d-83            [-1, 256, 8, 8]          65,536\n",
      "           Conv2d-84            [-1, 256, 8, 8]           2,304\n",
      "           Conv2d-85            [-1, 256, 8, 8]           2,304\n",
      "           Conv2d-86            [-1, 512, 8, 8]         262,144\n",
      "          Flatten-87                  [-1, 512]               0\n",
      "           Linear-88                   [-1, 32]          16,416\n",
      "             ReLU-89                   [-1, 32]               0\n",
      "           Linear-90                  [-1, 512]          16,896\n",
      "      ChannelGate-91            [-1, 512, 8, 8]               0\n",
      "               SE-92            [-1, 512, 8, 8]               0\n",
      "           Conv2d-93            [-1, 512, 8, 8]         131,072\n",
      "         PDPBlock-94            [-1, 512, 8, 8]               0\n",
      "           Conv2d-95            [-1, 512, 8, 8]         262,144\n",
      "           Conv2d-96            [-1, 512, 8, 8]           4,608\n",
      "           Conv2d-97            [-1, 512, 8, 8]           4,608\n",
      "           Conv2d-98            [-1, 512, 8, 8]         524,288\n",
      "          Flatten-99                  [-1, 512]               0\n",
      "          Linear-100                   [-1, 32]          16,416\n",
      "            ReLU-101                   [-1, 32]               0\n",
      "          Linear-102                  [-1, 512]          16,896\n",
      "     ChannelGate-103            [-1, 512, 8, 8]               0\n",
      "              SE-104            [-1, 512, 8, 8]               0\n",
      "        PDPBlock-105            [-1, 512, 8, 8]               0\n",
      "          Conv2d-106           [-1, 1024, 8, 8]         525,312\n",
      "     BatchNorm2d-107           [-1, 1024, 8, 8]           2,048\n",
      "AdaptiveAvgPool2d-108           [-1, 1024, 1, 1]               0\n",
      "         Dropout-109                 [-1, 1024]               0\n",
      "          Linear-110                  [-1, 100]         102,500\n",
      "================================================================\n",
      "Total params: 2,609,260\n",
      "Trainable params: 2,609,260\n",
      "Non-trainable params: 0\n",
      "----------------------------------------------------------------\n",
      "Input size (MB): 0.01\n",
      "Forward/backward pass size (MB): 18.74\n",
      "Params size (MB): 9.95\n",
      "Estimated Total Size (MB): 28.70\n",
…
